…
144, 0.0138, 0.9955, 0.1524, 0.9662
145, 0.0109, 0.996, 0.2026, 0.9631
146, 0.032, 0.9884, 0.1721, 0.9652
147, 0.0301, 0.9892, 0.1535, 0.9578
148, 0.0186, 0.9942, 0.1724, 0.9578
149, 0.0177, 0.9945, 0.1483, 0.9662
150, 0.0162, 0.996, 0.1161, 0.9715
end time: Mon Sep  5 06:07:18 2022
===== model structure =====
==========================================================================================
Layer (type:depth-idx)                   Output Shape              Param #
==========================================================================================
├─Conv2d: 1-1                            [-1, 64, 64, 64]          192
├─BatchNorm2d: 1-2                       [-1, 64, 64, 64]          128
├─Sequential: 1-3                        [-1, 256, 64, 64]         --
|    └─0.conv1.weight
|    └─0.bn1.weight
|    └─0.conv2.weight
|    └─0.bn2.weight
|    └─0.conv3.weight
|    └─0.bn3.weight
|    └─0.shortcut.0.weight
|    └─0.shortcut.1.weight
|    └─1.conv1.weight
|    └─1.bn1.weight
|    └─1.conv2.weight
|    └─1.bn2.weight
|    └─1.conv3.weight
|    └─1.bn3.weight
|    └─2.conv1.weight
|    └─2.bn1.weight
|    └─2.conv2.weight
|    └─2.bn2.weight
|    └─2.conv3.weight
|    └─2.bn3.weight
|    └─Block: 2-1                        [-1, 256, 64, 64]         --
|    |    └─conv1.weight
|    |    └─bn1.weight
|    |    └─conv2.weight
|    |    └─bn2.weight
|    |    └─conv3.weight
|    |    └─bn3.weight
|    |    └─shortcut.0.weight
|    |    └─shortcut.1.weight
|    |    └─Conv2d: 3-1                  [-1, 128, 64, 64]         8,192
|    |    └─BatchNorm2d: 3-2             [-1, 128, 64, 64]         256
|    |    └─Conv2d: 3-3                  [-1, 128, 64, 64]         4,608
|    |    └─BatchNorm2d: 3-4             [-1, 128, 64, 64]         256
|    |    └─Conv2d: 3-5                  [-1, 256, 64, 64]         32,768
|    |    └─BatchNorm2d: 3-6             [-1, 256, 64, 64]         512
|    |    └─Sequential: 3-7              [-1, 256, 64, 64]         16,896
|    |    |    └─0.weight
|    |    |    └─1.weight
|    └─Block: 2-2                        [-1, 256, 64, 64]         --
|    |    └─conv1.weight
|    |    └─bn1.weight
|    |    └─conv2.weight
|    |    └─bn2.weight
|    |    └─conv3.weight
|    |    └─bn3.weight
|    |    └─Conv2d: 3-8                  [-1, 128, 64, 64]         32,768
|    |    └─BatchNorm2d: 3-9             [-1, 128, 64, 64]         256
|    |    └─Conv2d: 3-10                 [-1, 128, 64, 64]         4,608
|    |    └─BatchNorm2d: 3-11            [-1, 128, 64, 64]         256
|    |    └─Conv2d: 3-12                 [-1, 256, 64, 64]         32,768
|    |    └─BatchNorm2d: 3-13            [-1, 256, 64, 64]         512
|    |    └─Sequential: 3-14             [-1, 256, 64, 64]         --
|    └─Block: 2-3                        [-1, 256, 64, 64]         --
|    |    └─conv1.weight
|    |    └─bn1.weight
|    |    └─conv2.weight
|    |    └─bn2.weight
|    |    └─conv3.weight
|    |    └─bn3.weight
|    |    └─Conv2d: 3-15                 [-1, 128, 64, 64]         32,768
|    |    └─BatchNorm2d: 3-16            [-1, 128, 64, 64]         256
|    |    └─Conv2d: 3-17                 [-1, 128, 64, 64]         4,608
|    |    └─BatchNorm2d: 3-18            [-1, 128, 64, 64]         256
|    |    └─Conv2d: 3-19                 [-1, 256, 64, 64]         32,768
|    |    └─BatchNorm2d: 3-20            [-1, 256, 64, 64]         512
|    |    └─Sequential: 3-21             [-1, 256, 64, 64]         --
├─Sequential: 1-4                        [-1, 512, 32, 32]         --
|    └─0.conv1.weight
|    └─0.bn1.weight
|    └─0.conv2.weight
|    └─0.bn2.weight
|    └─0.conv3.weight
|    └─0.bn3.weight
|    └─0.shortcut.0.weight
|    └─0.shortcut.1.weight
|    └─1.conv1.weight
|    └─1.bn1.weight
|    └─1.conv2.weight
|    └─1.bn2.weight
|    └─1.conv3.weight
|    └─1.bn3.weight
|    └─2.conv1.weight
|    └─2.bn1.weight
|    └─2.conv2.weight
|    └─2.bn2.weight
|    └─2.conv3.weight
|    └─2.bn3.weight
|    └─3.conv1.weight
|    └─3.bn1.weight
|    └─3.conv2.weight
|    └─3.bn2.weight
|    └─3.conv3.weight
|    └─3.bn3.weight
|    └─Block: 2-4                        [-1, 512, 32, 32]         --
|    |    └─conv1.weight
|    |    └─bn1.weight
|    |    └─conv2.weight
|    |    └─bn2.weight
|    |    └─conv3.weight
|    |    └─bn3.weight
|    |    └─shortcut.0.weight
|    |    └─shortcut.1.weight
|    |    └─Conv2d: 3-22                 [-1, 256, 64, 64]         65,536
|    |    └─BatchNorm2d: 3-23            [-1, 256, 64, 64]         512
|    |    └─Conv2d: 3-24                 [-1, 256, 32, 32]         18,432
|    |    └─BatchNorm2d: 3-25            [-1, 256, 32, 32]         512
|    |    └─Conv2d: 3-26                 [-1, 512, 32, 32]         131,072
|    |    └─BatchNorm2d: 3-27            [-1, 512, 32, 32]         1,024
|    |    └─Sequential: 3-28             [-1, 512, 32, 32]         132,096
|    |    |    └─0.weight
|    |    |    └─1.weight
|    └─Block: 2-5                        [-1, 512, 32, 32]         --
|    |    └─conv1.weight
|    |    └─bn1.weight
|    |    └─conv2.weight
|    |    └─bn2.weight
|    |    └─conv3.weight
|    |    └─bn3.weight
|    |    └─Conv2d: 3-29                 [-1, 256, 32, 32]         131,072
|    |    └─BatchNorm2d: 3-30            [-1, 256, 32, 32]         512
|    |    └─Conv2d: 3-31                 [-1, 256, 32, 32]         18,432
|    |    └─BatchNorm2d: 3-32            [-1, 256, 32, 32]         512
|    |    └─Conv2d: 3-33                 [-1, 512, 32, 32]         131,072
|    |    └─BatchNorm2d: 3-34            [-1, 512, 32, 32]         1,024
|    |    └─Sequential: 3-35             [-1, 512, 32, 32]         --
|    └─Block: 2-6                        [-1, 512, 32, 32]         --
|    |    └─conv1.weight
|    |    └─bn1.weight
|    |    └─conv2.weight
|    |    └─bn2.weight
|    |    └─conv3.weight
|    |    └─bn3.weight
|    |    └─Conv2d: 3-36                 [-1, 256, 32, 32]         131,072
|    |    └─BatchNorm2d: 3-37            [-1, 256, 32, 32]         512
|    |    └─Conv2d: 3-38                 [-1, 256, 32, 32]         18,432
|    |    └─BatchNorm2d: 3-39            [-1, 256, 32, 32]         512
|    |    └─Conv2d: 3-40                 [-1, 512, 32, 32]         131,072
|    |    └─BatchNorm2d: 3-41            [-1, 512, 32, 32]         1,024
|    |    └─Sequential: 3-42             [-1, 512, 32, 32]         --
|    └─Block: 2-7                        [-1, 512, 32, 32]         --
|    |    └─conv1.weight
|    |    └─bn1.weight
|    |    └─conv2.weight
|    |    └─bn2.weight
|    |    └─conv3.weight
|    |    └─bn3.weight
|    |    └─Conv2d: 3-43                 [-1, 256, 32, 32]         131,072
|    |    └─BatchNorm2d: 3-44            [-1, 256, 32, 32]         512
|    |    └─Conv2d: 3-45                 [-1, 256, 32, 32]         18,432
|    |    └─BatchNorm2d: 3-46            [-1, 256, 32, 32]         512
|    |    └─Conv2d: 3-47                 [-1, 512, 32, 32]         131,072
|    |    └─BatchNorm2d: 3-48            [-1, 512, 32, 32]         1,024
|    |    └─Sequential: 3-49             [-1, 512, 32, 32]         --
├─Sequential: 1-5                        [-1, 1024, 16, 16]        --
|    └─0.conv1.weight
|    └─0.bn1.weight
|    └─0.conv2.weight
|    └─0.bn2.weight
|    └─0.conv3.weight
|    └─0.bn3.weight
|    └─0.shortcut.0.weight
|    └─0.shortcut.1.weight
|    └─1.conv1.weight
|    └─1.bn1.weight
|    └─1.conv2.weight
|    └─1.bn2.weight
|    └─1.conv3.weight
|    └─1.bn3.weight
|    └─2.conv1.weight
|    └─2.bn1.weight
|    └─2.conv2.weight
|    └─2.bn2.weight
|    └─2.conv3.weight
…
|    └─18.conv3.weight
|    └─18.bn3.weight
|    └─19.conv1.weight
|    └─19.bn1.weight
|    └─19.conv2.weight
|    └─19.bn2.weight
|    └─19.conv3.weight
|    └─19.bn3.weight
|    └─20.conv1.weight
|    └─20.bn1.weight
|    └─20.conv2.weight
|    └─20.bn2.weight
|    └─20.conv3.weight
|    └─20.bn3.weight
|    └─21.conv1.weight
|    └─21.bn1.weight
|    └─21.conv2.weight
|    └─21.bn2.weight
|    └─21.conv3.weight
|    └─21.bn3.weight
|    └─22.conv1.weight
|    └─22.bn1.weight
|    └─22.conv2.weight
|    └─22.bn2.weight
|    └─22.conv3.weight
|    └─22.bn3.weight
|    └─Block: 2-8                        [-1, 1024, 16, 16]        --
|    |    └─conv1.weight
|    |    └─bn1.weight
|    |    └─conv2.weight
|    |    └─bn2.weight
|    |    └─conv3.weight
|    |    └─bn3.weight
|    |    └─shortcut.0.weight
|    |    └─shortcut.1.weight
|    |    └─Conv2d: 3-50                 [-1, 512, 32, 32]         262,144
|    |    └─BatchNorm2d: 3-51            [-1, 512, 32, 32]         1,024
|    |    └─Conv2d: 3-52                 [-1, 512, 16, 16]         73,728
|    |    └─BatchNorm2d: 3-53            [-1, 512, 16, 16]         1,024
|    |    └─Conv2d: 3-54                 [-1, 1024, 16, 16]        524,288
|    |    └─BatchNorm2d: 3-55            [-1, 1024, 16, 16]        2,048
|    |    └─Sequential: 3-56             [-1, 1024, 16, 16]        526,336
|    |    |    └─0.weight
|    |    |    └─1.weight
|    └─Block: 2-9                        [-1, 1024, 16, 16]        --
|    |    └─conv1.weight
|    |    └─bn1.weight
|    |    └─conv2.weight
|    |    └─bn2.weight
|    |    └─conv3.weight
|    |    └─bn3.weight
|    |    └─Conv2d: 3-57                 [-1, 512, 16, 16]         524,288
|    |    └─BatchNorm2d: 3-58            [-1, 512, 16, 16]         1,024
|    |    └─Conv2d: 3-59                 [-1, 512, 16, 16]         73,728
|    |    └─BatchNorm2d: 3-60            [-1, 512, 16, 16]         1,024
|    |    └─Conv2d: 3-61                 [-1, 1024, 16, 16]        524,288
|    |    └─BatchNorm2d: 3-62            [-1, 1024, 16, 16]        2,048
|    |    └─Sequential: 3-63             [-1, 1024, 16, 16]        --
|    └─Block: 2-10                       [-1, 1024, 16, 16]        --
|    |    └─conv1.weight
|    |    └─bn1.weight
|    |    └─conv2.weight
|    |    └─bn2.weight
|    |    └─conv3.weight
|    |    └─bn3.weight
|    |    └─Conv2d: 3-64                 [-1, 512, 16, 16]         524,288
|    |    └─BatchNorm2d: 3-65            [-1, 512, 16, 16]         1,024
|    |    └─Conv2d: 3-66                 [-1, 512, 16, 16]         73,728
|    |    └─BatchNorm2d: 3-67            [-1, 512, 16, 16]         1,024
|    |    └─Conv2d: 3-68                 [-1, 1024, 16, 16]        524,288
|    |    └─BatchNorm2d: 3-69            [-1, 1024, 16, 16]        2,048
|    |    └─Sequential: 3-70             [-1, 1024, 16, 16]        --
|    └─Block: 2-11                       [-1, 1024, 16, 16]        --
|    |    └─conv1.weight
|    |    └─bn1.weight
|    |    └─conv2.weight
|    |    └─bn2.weight
|    |    └─conv3.weight
|    |    └─bn3.weight
|    |    └─Conv2d: 3-71                 [-1, 512, 16, 16]         524,288
|    |    └─BatchNorm2d: 3-72            [-1, 512, 16, 16]         1,024
|    |    └─Conv2d: 3-73                 [-1, 512, 16, 16]         73,728
|    |    └─BatchNorm2d: 3-74            [-1, 512, 16, 16]         1,024
|    |    └─Conv2d: 3-75                 [-1, 1024, 16, 16]        524,288
|    |    └─BatchNorm2d: 3-76            [-1, 1024, 16, 16]        2,048
|    |    └─Sequential: 3-77             [-1, 1024, 16, 16]        --
|    └─Block: 2-12                       [-1, 1024, 16, 16]        --
|    |    └─conv1.weight
|    |    └─bn1.weight
|    |    └─conv2.weight
|    |    └─bn2.weight
|    |    └─conv3.weight
|    |    └─bn3.weight
|    |    └─Conv2d: 3-78                 [-1, 512, 16, 16]         524,288
|    |    └─BatchNorm2d: 3-79            [-1, 512, 16, 16]         1,024
|    |    └─Conv2d: 3-80                 [-1, 512, 16, 16]         73,728
|    |    └─BatchNorm2d: 3-81            [-1, 512, 16, 16]         1,024
|    |    └─Conv2d: 3-82                 [-1, 1024, 16, 16]        524,288
|    |    └─BatchNorm2d: 3-83            [-1, 1024, 16, 16]        2,048
|    |    └─Sequential: 3-84             [-1, 1024, 16, 16]        --
|    └─Block: 2-13                       [-1, 1024, 16, 16]        --
|    |    └─conv1.weight
|    |    └─bn1.weight
|    |    └─conv2.weight
|    |    └─bn2.weight
|    |    └─conv3.weight
|    |    └─bn3.weight
|    |    └─Conv2d: 3-85                 [-1, 512, 16, 16]         524,288
|    |    └─BatchNorm2d: 3-86            [-1, 512, 16, 16]         1,024
|    |    └─Conv2d: 3-87                 [-1, 512, 16, 16]         73,728
|    |    └─BatchNorm2d: 3-88            [-1, 512, 16, 16]         1,024
|    |    └─Conv2d: 3-89                 [-1, 1024, 16, 16]        524,288
|    |    └─BatchNorm2d: 3-90            [-1, 1024, 16, 16]        2,048
|    |    └─Sequential: 3-91             [-1, 1024, 16, 16]        --
|    └─Block: 2-14                       [-1, 1024, 16, 16]        --
|    |    └─conv1.weight
|    |    └─bn1.weight
|    |    └─conv2.weight
|    |    └─bn2.weight
|    |    └─conv3.weight
|    |    └─bn3.weight
|    |    └─Conv2d: 3-92                 [-1, 512, 16, 16]         524,288
|    |    └─BatchNorm2d: 3-93            [-1, 512, 16, 16]         1,024
|    |    └─Conv2d: 3-94                 [-1, 512, 16, 16]         73,728
|    |    └─BatchNorm2d: 3-95            [-1, 512, 16, 16]         1,024
|    |    └─Conv2d: 3-96                 [-1, 1024, 16, 16]        524,288
|    |    └─BatchNorm2d: 3-97            [-1, 1024, 16, 16]        2,048
|    |    └─Sequential: 3-98             [-1, 1024, 16, 16]        --
|    └─Block: 2-15                       [-1, 1024, 16, 16]        --
|    |    └─conv1.weight
|    |    └─bn1.weight
|    |    └─conv2.weight
|    |    └─bn2.weight
|    |    └─conv3.weight
|    |    └─bn3.weight
|    |    └─Conv2d: 3-99                 [-1, 512, 16, 16]         524,288
|    |    └─BatchNorm2d: 3-100           [-1, 512, 16, 16]         1,024
|    |    └─Conv2d: 3-101                [-1, 512, 16, 16]         73,728
|    |    └─BatchNorm2d: 3-102           [-1, 512, 16, 16]         1,024
|    |    └─Conv2d: 3-103                [-1, 1024, 16, 16]        524,288
|    |    └─BatchNorm2d: 3-104           [-1, 1024, 16, 16]        2,048
|    |    └─Sequential: 3-105            [-1, 1024, 16, 16]        --
|    └─Block: 2-16                       [-1, 1024, 16, 16]        --
|    |    └─conv1.weight
|    |    └─bn1.weight
|    |    └─conv2.weight
|    |    └─bn2.weight
|    |    └─conv3.weight
|    |    └─bn3.weight
|    |    └─Conv2d: 3-106                [-1, 512, 16, 16]         524,288
|    |    └─BatchNorm2d: 3-107           [-1, 512, 16, 16]         1,024
|    |    └─Conv2d: 3-108                [-1, 512, 16, 16]         73,728
|    |    └─BatchNorm2d: 3-109           [-1, 512, 16, 16]         1,024
|    |    └─Conv2d: 3-110                [-1, 1024, 16, 16]        524,288
|    |    └─BatchNorm2d: 3-111           [-1, 1024, 16, 16]        2,048
|    |    └─Sequential: 3-112            [-1, 1024, 16, 16]        --
|    └─Block: 2-17                       [-1, 1024, 16, 16]        --
|    |    └─conv1.weight
|    |    └─bn1.weight
|    |    └─conv2.weight
|    |    └─bn2.weight
|    |    └─conv3.weight
|    |    └─bn3.weight
|    |    └─Conv2d: 3-113                [-1, 512, 16, 16]         524,288
|    |    └─BatchNorm2d: 3-114           [-1, 512, 16, 16]         1,024
|    |    └─Conv2d: 3-115                [-1, 512, 16, 16]         73,728
|    |    └─BatchNorm2d: 3-116           [-1, 512, 16, 16]         1,024
|    |    └─Conv2d: 3-117                [-1, 1024, 16, 16]        524,288
|    |    └─BatchNorm2d: 3-118           [-1, 1024, 16, 16]        2,048
|    |    └─Sequential: 3-119            [-1, 1024, 16, 16]        --
|    └─Block: 2-18                       [-1, 1024, 16, 16]        --
|    |    └─conv1.weight
|    |    └─bn1.weight
|    |    └─conv2.weight
|    |    └─bn2.weight
|    |    └─conv3.weight
|    |    └─bn3.weight
|    |    └─Conv2d: 3-120                [-1, 512, 16, 16]         524,288
|    |    └─BatchNorm2d: 3-121           [-1, 512, 16, 16]         1,024
|    |    └─Conv2d: 3-122                [-1, 512, 16, 16]         73,728
|    |    └─BatchNorm2d: 3-123           [-1, 512, 16, 16]         1,024
|    |    └─Conv2d: 3-124                [-1, 1024, 16, 16]        524,288
|    |    └─BatchNorm2d: 3-125           [-1, 1024, 16, 16]        2,048
|    |    └─Sequential: 3-126            [-1, 1024, 16, 16]        --
|    └─Block: 2-19                       [-1, 1024, 16, 16]        --
|    |    └─conv1.weight
|    |    └─bn1.weight
|    |    └─conv2.weight
|    |    └─bn2.weight
|    |    └─conv3.weight
|    |    └─bn3.weight
|    |    └─Conv2d: 3-127                [-1, 512, 16, 16]         524,288
|    |    └─BatchNorm2d: 3-128           [-1, 512, 16, 16]         1,024
|    |    └─Conv2d: 3-129                [-1, 512, 16, 16]         73,728
|    |    └─BatchNorm2d: 3-130           [-1, 512, 16, 16]         1,024
|    |    └─Conv2d: 3-131                [-1, 1024, 16, 16]        524,288
|    |    └─BatchNorm2d: 3-132           [-1, 1024, 16, 16]        2,048
|    |    └─Sequential: 3-133            [-1, 1024, 16, 16]        --
|    └─Block: 2-20                       [-1, 1024, 16, 16]        --
|    |    └─conv1.weight
|    |    └─bn1.weight
|    |    └─conv2.weight
|    |    └─bn2.weight
|    |    └─conv3.weight
|    |    └─bn3.weight
|    |    └─Conv2d: 3-134                [-1, 512, 16, 16]         524,288
|    |    └─BatchNorm2d: 3-135           [-1, 512, 16, 16]         1,024
|    |    └─Conv2d: 3-136                [-1, 512, 16, 16]         73,728
|    |    └─BatchNorm2d: 3-137           [-1, 512, 16, 16]         1,024
|    |    └─Conv2d: 3-138                [-1, 1024, 16, 16]        524,288
|    |    └─BatchNorm2d: 3-139           [-1, 1024, 16, 16]        2,048
|    |    └─Sequential: 3-140            [-1, 1024, 16, 16]        --
|    └─Block: 2-21                       [-1, 1024, 16, 16]        --
|    |    └─conv1.weight
|    |    └─bn1.weight
|    |    └─conv2.weight
|    |    └─bn2.weight
|    |    └─conv3.weight
|    |    └─bn3.weight
|    |    └─Conv2d: 3-141                [-1, 512, 16, 16]         524,288
|    |    └─BatchNorm2d: 3-142           [-1, 512, 16, 16]         1,024
|    |    └─Conv2d: 3-143                [-1, 512, 16, 16]         73,728
|    |    └─BatchNorm2d: 3-144           [-1, 512, 16, 16]         1,024
|    |    └─Conv2d: 3-145                [-1, 1024, 16, 16]        524,288
|    |    └─BatchNorm2d: 3-146           [-1, 1024, 16, 16]        2,048
|    |    └─Sequential: 3-147            [-1, 1024, 16, 16]        --
|    └─Block: 2-22                       [-1, 1024, 16, 16]        --
|    |    └─conv1.weight
|    |    └─bn1.weight
|    |    └─conv2.weight
|    |    └─bn2.weight
|    |    └─conv3.weight
|    |    └─bn3.weight
|    |    └─Conv2d: 3-148                [-1, 512, 16, 16]         524,288
|    |    └─BatchNorm2d: 3-149           [-1, 512, 16, 16]         1,024
|    |    └─Conv2d: 3-150                [-1, 512, 16, 16]         73,728
|    |    └─BatchNorm2d: 3-151           [-1, 512, 16, 16]         1,024
|    |    └─Conv2d: 3-152                [-1, 1024, 16, 16]        524,288
|    |    └─BatchNorm2d: 3-153           [-1, 1024, 16, 16]        2,048
|    |    └─Sequential: 3-154            [-1, 1024, 16, 16]        --
|    └─Block: 2-23                       [-1, 1024, 16, 16]        --
|    |    └─conv1.weight
|    |    └─bn1.weight
|    |    └─conv2.weight
|    |    └─bn2.weight
|    |    └─conv3.weight
|    |    └─bn3.weight
|    |    └─Conv2d: 3-155                [-1, 512, 16, 16]         524,288
|    |    └─BatchNorm2d: 3-156           [-1, 512, 16, 16]         1,024
|    |    └─Conv2d: 3-157                [-1, 512, 16, 16]         73,728
|    |    └─BatchNorm2d: 3-158           [-1, 512, 16, 16]         1,024
|    |    └─Conv2d: 3-159                [-1, 1024, 16, 16]        524,288
|    |    └─BatchNorm2d: 3-160           [-1, 1024, 16, 16]        2,048
|    |    └─Sequential: 3-161            [-1, 1024, 16, 16]        --
|    └─Block: 2-24                       [-1, 1024, 16, 16]        --
|    |    └─conv1.weight
|    |    └─bn1.weight
|    |    └─conv2.weight
|    |    └─bn2.weight
|    |    └─conv3.weight
|    |    └─bn3.weight
|    |    └─Conv2d: 3-162                [-1, 512, 16, 16]         524,288
|    |    └─BatchNorm2d: 3-163           [-1, 512, 16, 16]         1,024
|    |    └─Conv2d: 3-164                [-1, 512, 16, 16]         73,728
|    |    └─BatchNorm2d: 3-165           [-1, 512, 16, 16]         1,024
|    |    └─Conv2d: 3-166                [-1, 1024, 16, 16]        524,288
|    |    └─BatchNorm2d: 3-167           [-1, 1024, 16, 16]        2,048
|    |    └─Sequential: 3-168            [-1, 1024, 16, 16]        --
|    └─Block: 2-25                       [-1, 1024, 16, 16]        --
|    |    └─conv1.weight
|    |    └─bn1.weight
|    |    └─conv2.weight
|    |    └─bn2.weight
|    |    └─conv3.weight
|    |    └─bn3.weight
|    |    └─Conv2d: 3-169                [-1, 512, 16, 16]         524,288
|    |    └─BatchNorm2d: 3-170           [-1, 512, 16, 16]         1,024
|    |    └─Conv2d: 3-171                [-1, 512, 16, 16]         73,728
|    |    └─BatchNorm2d: 3-172           [-1, 512, 16, 16]         1,024
|    |    └─Conv2d: 3-173                [-1, 1024, 16, 16]        524,288
|    |    └─BatchNorm2d: 3-174           [-1, 1024, 16, 16]        2,048
|    |    └─Sequential: 3-175            [-1, 1024, 16, 16]        --
|    └─Block: 2-26                       [-1, 1024, 16, 16]        --
|    |    └─conv1.weight
|    |    └─bn1.weight
|    |    └─conv2.weight
|    |    └─bn2.weight
|    |    └─conv3.weight
|    |    └─bn3.weight
|    |    └─Conv2d: 3-176                [-1, 512, 16, 16]         524,288
|    |    └─BatchNorm2d: 3-177           [-1, 512, 16, 16]         1,024
|    |    └─Conv2d: 3-178                [-1, 512, 16, 16]         73,728
|    |    └─BatchNorm2d: 3-179           [-1, 512, 16, 16]         1,024
|    |    └─Conv2d: 3-180                [-1, 1024, 16, 16]        524,288
|    |    └─BatchNorm2d: 3-181           [-1, 1024, 16, 16]        2,048
|    |    └─Sequential: 3-182            [-1, 1024, 16, 16]        --
|    └─Block: 2-27                       [-1, 1024, 16, 16]        --
|    |    └─conv1.weight
|    |    └─bn1.weight
|    |    └─conv2.weight
|    |    └─bn2.weight
|    |    └─conv3.weight
|    |    └─bn3.weight
|    |    └─Conv2d: 3-183                [-1, 512, 16, 16]         524,288
|    |    └─BatchNorm2d: 3-184           [-1, 512, 16, 16]         1,024
|    |    └─Conv2d: 3-185                [-1, 512, 16, 16]         73,728
|    |    └─BatchNorm2d: 3-186           [-1, 512, 16, 16]         1,024
|    |    └─Conv2d: 3-187                [-1, 1024, 16, 16]        524,288
|    |    └─BatchNorm2d: 3-188           [-1, 1024, 16, 16]        2,048
|    |    └─Sequential: 3-189            [-1, 1024, 16, 16]        --
|    └─Block: 2-28                       [-1, 1024, 16, 16]        --
|    |    └─conv1.weight
|    |    └─bn1.weight
|    |    └─conv2.weight
|    |    └─bn2.weight
|    |    └─conv3.weight
|    |    └─bn3.weight
|    |    └─Conv2d: 3-190                [-1, 512, 16, 16]         524,288
|    |    └─BatchNorm2d: 3-191           [-1, 512, 16, 16]         1,024
|    |    └─Conv2d: 3-192                [-1, 512, 16, 16]         73,728
|    |    └─BatchNorm2d: 3-193           [-1, 512, 16, 16]         1,024
|    |    └─Conv2d: 3-194                [-1, 1024, 16, 16]        524,288
|    |    └─BatchNorm2d: 3-195           [-1, 1024, 16, 16]        2,048
|    |    └─Sequential: 3-196            [-1, 1024, 16, 16]        --
|    └─Block: 2-29                       [-1, 1024, 16, 16]        --
|    |    └─conv1.weight
|    |    └─bn1.weight
|    |    └─conv2.weight
|    |    └─bn2.weight
|    |    └─conv3.weight
|    |    └─bn3.weight
|    |    └─Conv2d: 3-197                [-1, 512, 16, 16]         524,288
|    |    └─BatchNorm2d: 3-198           [-1, 512, 16, 16]         1,024
|    |    └─Conv2d: 3-199                [-1, 512, 16, 16]         73,728
|    |    └─BatchNorm2d: 3-200           [-1, 512, 16, 16]         1,024
|    |    └─Conv2d: 3-201                [-1, 1024, 16, 16]        524,288
|    |    └─BatchNorm2d: 3-202           [-1, 1024, 16, 16]        2,048
|    |    └─Sequential: 3-203            [-1, 1024, 16, 16]        --
|    └─Block: 2-30                       [-1, 1024, 16, 16]        --
|    |    └─conv1.weight
|    |    └─bn1.weight
|    |    └─conv2.weight
|    |    └─bn2.weight
|    |    └─conv3.weight
|    |    └─bn3.weight
|    |    └─Conv2d: 3-204                [-1, 512, 16, 16]         524,288
|    |    └─BatchNorm2d: 3-205           [-1, 512, 16, 16]         1,024
|    |    └─Conv2d: 3-206                [-1, 512, 16, 16]         73,728
|    |    └─BatchNorm2d: 3-207           [-1, 512, 16, 16]         1,024
|    |    └─Conv2d: 3-208                [-1, 1024, 16, 16]        524,288
|    |    └─BatchNorm2d: 3-209           [-1, 1024, 16, 16]        2,048
|    |    └─Sequential: 3-210            [-1, 1024, 16, 16]        --
├─Sequential: 1-6                        [-1, 2048, 8, 8]          --
|    └─0.conv1.weight
|    └─0.bn1.weight
|    └─0.conv2.weight
|    └─0.bn2.weight
|    └─0.conv3.weight
|    └─0.bn3.weight
|    └─0.shortcut.0.weight
|    └─0.shortcut.1.weight
|    └─1.conv1.weight
|    └─1.bn1.weight
|    └─1.conv2.weight
|    └─1.bn2.weight
|    └─1.conv3.weight
|    └─1.bn3.weight
|    └─2.conv1.weight
|    └─2.bn1.weight
|    └─2.conv2.weight
|    └─2.bn2.weight
|    └─2.conv3.weight
|    └─2.bn3.weight
|    └─Block: 2-31                       [-1, 2048, 8, 8]          --
|    |    └─conv1.weight
|    |    └─bn1.weight
|    |    └─conv2.weight
|    |    └─bn2.weight
|    |    └─conv3.weight
|    |    └─bn3.weight
|    |    └─shortcut.0.weight
|    |    └─shortcut.1.weight
|    |    └─Conv2d: 3-211                [-1, 1024, 16, 16]        1,048,576
|    |    └─BatchNorm2d: 3-212           [-1, 1024, 16, 16]        2,048
|    |    └─Conv2d: 3-213                [-1, 1024, 8, 8]          294,912
|    |    └─BatchNorm2d: 3-214           [-1, 1024, 8, 8]          2,048
|    |    └─Conv2d: 3-215                [-1, 2048, 8, 8]          2,097,152
|    |    └─BatchNorm2d: 3-216           [-1, 2048, 8, 8]          4,096
|    |    └─Sequential: 3-217            [-1, 2048, 8, 8]          2,101,248
|    |    |    └─0.weight
|    |    |    └─1.weight
|    └─Block: 2-32                       [-1, 2048, 8, 8]          --
|    |    └─conv1.weight
|    |    └─bn1.weight
|    |    └─conv2.weight
|    |    └─bn2.weight
|    |    └─conv3.weight
|    |    └─bn3.weight
|    |    └─Conv2d: 3-218                [-1, 1024, 8, 8]          2,097,152
|    |    └─BatchNorm2d: 3-219           [-1, 1024, 8, 8]          2,048
|    |    └─Conv2d: 3-220                [-1, 1024, 8, 8]          294,912
|    |    └─BatchNorm2d: 3-221           [-1, 1024, 8, 8]          2,048
|    |    └─Conv2d: 3-222                [-1, 2048, 8, 8]          2,097,152
|    |    └─BatchNorm2d: 3-223           [-1, 2048, 8, 8]          4,096
|    |    └─Sequential: 3-224            [-1, 2048, 8, 8]          --
|    └─Block: 2-33                       [-1, 2048, 8, 8]          --
|    |    └─conv1.weight
|    |    └─bn1.weight
|    |    └─conv2.weight
|    |    └─bn2.weight
|    |    └─conv3.weight
|    |    └─bn3.weight
|    |    └─Conv2d: 3-225                [-1, 1024, 8, 8]          2,097,152
|    |    └─BatchNorm2d: 3-226           [-1, 1024, 8, 8]          2,048
|    |    └─Conv2d: 3-227                [-1, 1024, 8, 8]          294,912
|    |    └─BatchNorm2d: 3-228           [-1, 1024, 8, 8]          2,048
|    |    └─Conv2d: 3-229                [-1, 2048, 8, 8]          2,097,152
|    |    └─BatchNorm2d: 3-230           [-1, 2048, 8, 8]          4,096
|    |    └─Sequential: 3-231            [-1, 2048, 8, 8]          --
├─Linear: 1-7                            [-1, 12]                  24,588
==========================================================================================
Total params: 42,144,076
Trainable params: 42,144,076
Non-trainable params: 0
Total mult-adds (G): 10.34
==========================================================================================
Input size (MB): 0.05
Forward/backward pass size (MB): 411.00
Params size (MB): 160.77
Estimated Total Size (MB): 571.81
…
